params.pt (torch_old, 4478 bytes, 6 tensors)

rnn.weight_ih_l0 f4 [12, 28]
000000 ff 0c 05 41 5a 41 e3 41 37 f8 fb 41 b0 67 14 c1
       8.315673 28.40691 31.496199 -9.275314
000010 59 67 d0 40 5c aa 3b 41 a2 20 61 c1 6c e6 86 3e
       6.5126157 11.729092 -14.070467 0.26347673
000020 ea b3 72 41 d8 33 a0 c1 f9 ed 07 c1 22 0b 4f 41
       15.168924 -20.025314 -8.495599 12.940218
000030 21 25 93 c1 8b c2 4e bf be 0a 6c c1 38 d8 17 c1
       -18.39313 -0.807656 -14.752623 -9.490288
000040 a3 f2 49 c1 4e 79 2a c1 b1 04 31 41 04 47 85 c1
       -12.6217375 -10.654615 11.063645 -16.659676
000050 a5 89 c1 41 f4 dd c2 c1 e1 0a bf c1 9b 19 94 c0
       24.19221 -24.358376 -23.880312 -4.6281257
000060 b7 e4 02 c2 81 ed 3b 41 ca aa f7 41 31 2f da c0
       -32.723354 11.745484 30.958393 -6.8182607
000070 dd af 82 3e cb ce bd 3d 47 c8 94 be fd 62 c7 be
       0.25524798 0.09267958 -0.2905905 -0.3894271
000080 d1 1d e1 be 73 c0 76 be 26 72 85 3e 4b 74 cb 3e
       -0.4396806 -0.24096851 0.2606365 0.39737162
000090 5f ca 1a 3d 5d 5a b9 be be 73 4e 3e 16 94 c5 be
       0.037790652 -0.36201754 0.2016134 -0.38589543
0000a0 63 1f 37 3f e6 61 94 3e 23 9a 11 bf c1 9c f2 40
       0.7153227 0.2898094 -0.5687582 7.581635
0000b0 d4 32 bd be 35 e3 4b c0 58 9e 37 bf 1d 8d 9c be
       -0.3695284 -3.1857426 -0.7172599 -0.3057641
0000c0 74 e9 8a be e8 d1 b6 be a2 74 13 bf fc c4 c0 3e
       -0.27131236 -0.3570702 -0.5759984 0.37650287
0000d0 3f bd 95 bc aa f3 9e be b8 e2 0f 3e f9 99 78 be
       -0.018278716 -0.31045276 0.1405133 -0.24277486
0000e0 28 c3 01 be 9b 1e 6e 3f 5d 46 d8 be 6a 81 d2 3e
       -0.12672102 0.9301545 -0.42241183 0.4111436
0000f0 31 1b 8c 3f 2a ef 9d 3f ee 44 d6 3d 14 64 1e be
       1.0945798 1.2338612 0.10462366 -0.15467864
000100 64 af 3e 3e de 97 1c bf b5 f9 e7 3e b6 6c 14 be
       0.18621594 -0.6116923 0.453077 -0.14494595
000110 94 fd 01 bf ac f7 c9 bd 05 c7 85 be 5b b0 28 be
       -0.50777555 -0.09861693 -0.26128402 -0.16473524
000120 32 0a 9f 3f 5c fb af 3f 36 bf 38 bf 07 d0 6c be
       1.2424986 1.3748584 -0.72166765 -0.23126231
000130 9d 04 13 be ba 3b 4f bf cc 1c b7 3f 2f 68 98 3f
       -0.14357229 -0.8095051 1.4305663 1.1906794
000140 b8 5c a8 c0 33 3e 40 bd 26 ac fa c0 73 2b ae bb
       -5.261318 -0.046934318 -7.833514 -0.005315238
000150 55 70 58 41 4c 79 f4 3d 47 1b c2 3e e6 73 6a bf
       13.527425 0.11937198 0.37911436 -0.91583097
000160 95 76 1c c0 ea 05 e1 bf 50 70 b4 bf 6e 61 70 40
       -2.4447377 -1.757993 -1.4096775 3.7559466
000170 2a 71 9c bf 7e 74 0b c0 12 e3 c0 bf 27 17 f1 40
       -1.2222035 -2.178985 -1.5069296 7.534076
000180 20 1e 33 c0 58 19 03 41 31 17 e6 bf 02 11 b2 41
       -2.7987137 8.193687 -1.7975827 22.258305
000190 a4 87 16 c1 a0 ad bf 40 8e 57 ab bd 79 0e d7 bf
       -9.408115 5.9899445 -0.08366309 -1.6801292
0001a0 f5 55 14 41 0b df 82 3e 28 85 31 c0 f2 6a da bf
       9.270986 0.25560793 -2.7737522 -1.7063887
0001b0 c5 9e d5 41 e7 5d 7c 41 82 93 a4 bf e7 d5 89 40
       26.702524 15.772925 -1.2857516 4.307361
0001c0 e4 00 c7 3e 0b ad 48 3f ab e7 07 c0 f5 a7 fd 40
       0.38867867 0.7838904 -2.123515 7.9267526
0001d0 db eb 53 3f b3 a6 ab 3f 7f fe 23 3f eb b3 25 3f
       0.8278176 1.3410248 0.64060205 0.6472766
0001e0 4d 54 0c 40 bb 5a ff bf 58 92 80 be c1 bd 3d be
       2.1926453 -1.9949564 -0.2511165 -0.18529417
0001f0 01 33 01 bf 81 ac 06 41 4f 77 c5 bf 6c 9a a8 3d
       -0.5046845 8.417115 -1.5427035 0.08232579
000200 a8 f3 a1 3f c6 05 03 c1 40 cc df bf 8d 77 b1 bf
       1.2652483 -8.18891 -1.7484207 -1.3864609
000210 f5 94 b2 be e0 20 bf be 44 fc a3 3f 0c 9b a2 3f
       -0.3487927 -0.3732977 1.281136 1.2703567
000220 71 a1 68 bf 74 d6 38 be 63 a7 87 bf 13 d3 29 3f
       -0.9087134 -0.18050557 -1.0597957 0.663377
000230 69 c8 8e be 39 5e 80 bf 46 6b 15 c0 b8 ac 3b 3f
       -0.27887276 -1.0028754 -2.3346725 0.7331042
000240 21 22 23 3f 4a 66 16 41 a9 c1 09 c1 83 f2 09 3f
       0.6372395 9.399973 -8.60978 0.5388567
000250 97 a7 0c 40 45 04 84 3f 0a 65 24 bf 4c 7c c7 3f
       2.1977289 1.0313803 -0.64216673 1.5584807
000260 1e d7 e3 40 b0 c4 2c be ae b9 2a 3e 86 1a df 3f
       7.1200094 -0.16871905 0.16672394 1.7429969
000270 37 f0 49 3f 2e 4b ff be ad 78 b3 3f 7b 48 b1 3f
       0.78882164 -0.49862045 1.4021202 1.3850244
000280 9c ec b2 3f a0 04 09 40 95 86 19 41 6d 4e 0d 3d
       1.3978457 2.1409073 9.595357 0.03449862
000290 56 ec ad c0 56 f5 15 41 a4 d7 df 3f c5 cf f7 3e
       -5.4350996 9.372396 1.7487683 0.48400703
0002a0 a4 ff 03 bf da c8 07 3e e5 fa 06 3f 2f 6f 0e 3e
       -0.5156195 0.13260213 0.52726585 0.139096
0002b0 15 8e f9 3e aa e9 a9 3e c8 37 49 be b7 32 2b be
       0.48741212 0.33186084 -0.19650185 -0.16718565
0002c0 2f f9 8a ba 88 5a 0b 3f c4 d3 71 bd c4 56 90 bc
       -0.0010602827 0.54435015 -0.059039846 -0.017619498
0002d0 7a 16 18 be 89 87 64 3e 53 1f 6e 3e 47 55 90 3e
       -0.14852324 0.22317328 0.23254137 0.2819006
0002e0 b6 f5 c5 3e dd 46 f1 c0 20 3c 70 3f 26 14 d9 3e
       0.38664025 -7.5399003 0.93841743 0.42398185
0002f0 2b 85 49 3e 43 df a9 3f 9f b1 00 3f 65 da 6a 3e
       0.19679706 1.3271259 0.5027103 0.22934873
000300 fa 69 ab c0 d2 94 38 3d 1e 03 37 3e ca 26 14 bd
       -5.3566866 0.0450638 0.17872283 -0.036169805
000310 f5 20 16 c0 e1 fc f6 3d 3e 56 02 c0 78 5b d0 be
       -2.3457615 0.120599516 -2.0365138 -0.40694785
000320 2a 64 34 bd 88 0c 2d 3f c6 9b 24 c0 52 54 d2 bf
       -0.044040836 0.67597246 -2.5720077 -1.6431983
000330 a9 26 9c 3e 2f 0d 27 3f b7 47 11 3f 19 c6 c0 be
       0.30498245 0.6525449 0.56750053 -0.37651137
000340 54 b8 1d bd a6 1f ed bf 61 89 61 3e 0c 2a e9 be
       -0.038505867 -1.8525283 0.22025062 -0.45539892
000350 f7 96 29 bf b2 8d da bf 86 a0 d4 bd f6 fd 77 be
       -0.6624598 -1.7074492 -0.1038218 -0.24217972
000360 5e 6b 81 3e 3c af 82 be 99 f5 fd be c8 43 a1 3c
       0.25277227 -0.25524318 -0.4960144 0.01968564
000370 3a 69 5a 40 80 6c c1 3e d5 3b 17 c0 00 19 17 bf
       3.4126725 0.3777809 -2.3630269 -0.5902252
000380 b7 e8 99 be 84 75 91 bf f1 b6 04 3e a1 71 e2 bd
       -0.3006036 -1.1363988 0.12960412 -0.11056829
000390 80 5e 35 bf 94 9e 5f bf 54 91 11 bf 32 c6 2d 3e
       -0.7084732 -0.87351346 -0.5686238 0.16970137
0003a0 d2 50 67 bf aa 5b b2 be 0a 30 99 bf c2 14 4c be
       -0.90357697 -0.3483556 -1.1967785 -0.19929793
0003b0 a7 4a a5 be 4a 8b a4 3c 7e 38 c7 3e 3f 61 b7 bd
       -0.32283518 0.02008595 0.38910288 -0.08954095
0003c0 7c f9 e4 be ce 29 cd be 75 f1 05 3f d3 02 9f be
       -0.4472159 -0.40070957 0.5232156 -0.31056842
0003d0 f8 49 44 bd 69 2b 10 c1 0b 8b 2e be 59 5d bb bf
       -0.047922105 -9.010598 -0.17045228 -1.4637862
0003e0 56 0c 9b 40 ea a1 92 be 7b 70 94 3e 36 a7 1a 3f
       4.845256 -0.28639156 0.28992066 0.60411394
0003f0 b4 f8 97 3f e2 fa 85 3f 75 96 a6 3f be b4 63 3f
       1.1872773 1.0467188 1.3014666 0.88947666

rnn.weight_hh_l0 f4 [12, 12]
000000 de 4b 50 40 db 98 6a 40 ce 60 81 41 cb 3a 19 c1
       3.2546306 3.6655796 16.172268 -9.576854
000010 83 67 0c c1 64 8c 7a c0 6f ad b9 c0 60 46 d0 c0
       -8.775271 -3.9148188 -5.802421 -6.5085907
000020 6c 8a 90 41 5c 81 f0 3f db 28 94 c1 da 36 16 40
       18.067589 1.8789477 -18.519949 2.3470979
000030 b3 0c 05 3d 1c 6d 1a 3f ed 1f 98 3e e3 56 a1 bc
       0.032482814 0.6032274 0.29711857 -0.019694751
000040 44 21 af bd c1 c6 c4 bd bb 4b 24 3f e6 1c 0f 3e
       -0.08551267 -0.09608222 0.64178056 0.13975868
000050 57 dd d1 3e 2f 7a 99 bd f1 88 2d be 80 08 d2 3d
       0.4098918 -0.07494008 -0.1694677 0.102555275
000060 49 1a d7 bc b1 45 66 bf 51 32 d1 3c 84 92 33 bd
       -0.02625765 -0.8995009 0.025536688 -0.0438409
000070 e9 b8 f5 bc 0b c6 a2 3d 93 dd 85 be 99 2b 6e be
       -0.029995399 0.0794793 -0.2614561 -0.23258819
000080 15 2f 88 be ab 91 08 3f 43 10 52 3e 1e 33 84 3e
       -0.2659842 0.5334727 0.20514016 0.2582025
000090 eb 35 30 3c 8b 25 23 40 8a dd 11 41 e9 8e 52 bf
       0.010755043 2.5491664 9.116587 -0.82249314
0000a0 79 29 19 c0 45 c4 8b c0 22 92 bc 40 74 48 3e c0
       -2.3931563 -4.3677087 5.8928385 -2.9731722
0000b0 78 c9 17 c1 03 ff 07 c1 1a cf 0f 40 cb c9 f3 bf
       -9.486687 -8.499759 2.2470155 -1.9045957
0000c0 5b 6c ca 3b 0c aa f0 bf 35 62 3b bd 69 a4 79 be
       0.0061774678 -1.8801894 -0.045747954 -0.24379124
0000d0 df 5c fd 3d ad 70 ad 3e 3b d1 87 3e 39 79 cb be
       0.123712294 0.33875027 0.26526818 -0.39740923
0000e0 22 1f 58 be cc 3d c7 3f 21 e1 a4 3e 14 f2 22 3f
       -0.21105626 1.5565734 0.3220301 0.6365063
0000f0 51 58 6b 3d 4b 0e e1 be fc bf 38 3d ab dd ee bd
       0.057457272 -0.43956217 0.045104966 -0.116633736
000100 91 93 ac 3c d1 d5 b7 3d 69 3b e8 3e b3 de 98 bd
       0.021066459 0.08976329 0.45357826 -0.074643515
000110 9d 38 5e be 78 cc b7 bd 7f b8 2d bf 39 bc d2 be
       -0.21701284 -0.08974546 -0.67859644 -0.41159227
000120 72 4d 4e bc 4e 66 eb be f1 25 a8 be 2c 97 34 3d
       -0.012591707 -0.4597649 -0.32841447 0.04408948
000130 27 0f 10 3d 58 46 2e be eb f4 6f bd 6e 76 5a 3e
       0.0351707 -0.17019022 -0.05858318 0.2133424
000140 7c 11 3a be 9c 2f 31 be e6 c6 fc be 75 c5 db be
       -0.18170732 -0.17303318 -0.49370497 -0.42924085
000150 cc 89 a6 bd fe c4 5c 3f d5 bc 0d 3f ee 67 5d be
       -0.081317514 0.86238086 0.5536626 -0.21621677
000160 c7 36 69 3e 4b 17 6c 3e 79 92 3b be ac 77 01 bf
       0.22774802 0.2305576 -0.18317594 -0.5057323
000170 20 6d 8b 3e 01 67 5d be 74 b9 96 3e 4d f7 c0 3e
       0.27231693 -0.21621324 0.29438365 0.37688676
000180 39 ee 82 bc 1e f0 11 bf ab ee ad be 07 3c 34 ba
       -0.015982734 -0.57007015 -0.33971152 -0.00068754
000190 7c ed c3 3d 58 d5 a5 3d 5a 97 84 bf 24 89 2a 3d
       0.09566781 0.08097333 -1.0358689 0.041634694
0001a0 1c f4 71 be 39 f7 98 3e 9c 1e 18 3f f3 41 0a be
       -0.23628277 0.29876116 0.59421706 -0.1350172
0001b0 f0 b8 f0 bc b6 6b f2 bd f6 49 64 3d ca 9b f5 3c
       -0.02938506 -0.118369505 0.055734597 0.029981513
0001c0 61 9e 74 bd b4 d9 c0 bd a6 02 eb 3e 41 8a 9a 3d
       -0.059721354 -0.094165236 0.45900458 0.07545901
0001d0 50 46 ae 3d c5 f0 6b 3d 24 37 af be ad 7f 2a bd
       0.08509505 0.057602663 -0.34221756 -0.041625667
0001e0 f0 4e 0f bd df de 59 be 3d 58 d5 be fd b6 20 bd
       -0.03498739 -0.21276425 -0.41668883 -0.03923701
0001f0 da 31 1c 3e 29 b0 5e bd c2 38 79 bf 89 f5 08 3e
       0.15253392 -0.05436722 -0.9735223 0.13374914
000200 b7 6f 1a 3d c2 e7 31 3e f6 72 12 3f c3 10 6d 3b
       0.037704196 0.17373565 0.57206666 0.003617332
000210 1c 37 d1 3d 7f c1 12 40 fa 42 8f 3f cc 60 8a be
       0.102155894 2.29306 1.1192315 -0.27026975
000220 3e d1 ec bd 55 19 38 3e 34 88 44 3f b5 c9 e6 be
       -0.11563347 0.17978413 0.7677033 -0.45075765
000230 1a 92 01 3f 4c 8c 23 bf 08 f8 d5 3e ec 5c f2 3e
       0.5061356 -0.6388595 0.41790795 0.4733652

rnn.bias_ih_l0 f4 [12]
000000 da 0c 3b c0 86 77 1a 3f 00 53 32 bc 01 b0 53 3f
       -2.9226594 0.6033863 -0.010884047 0.82690436
000010 4d 8c 19 3b 7c 7e 08 3e c6 4b 7f be d8 ba 17 3c
       0.0023429573 0.133295 -0.24931249 0.009260856
000020 ee e4 2e bd c6 3a 98 3e 4b 4a 00 3d c7 e0 ac bc
       -0.042698793 0.2973234 0.03132085 -0.021103276

rnn.bias_hh_l0 f4 [12]
000000 63 5d 44 c0 1a 54 9a 3e f6 7a 85 be 25 9c 59 3f
       -3.0681999 0.3014229 -0.26070374 0.8500388
000010 ff 71 8d bc 43 d0 0c 3f 43 ea 0a bf 9d ad 37 be
       -0.017266272 0.5500528 -0.54263705 -0.17937322
000020 fa 58 a1 3e b2 e2 04 be 0e 6a f8 bb c2 64 fa 3d
       0.31513196 -0.12977102 -0.007581002 0.12226249

fc.weight f4 [28, 12]
000000 e3 bc c1 bf 15 0f ef 3f 38 d0 60 40 f3 cf ad 3f
       -1.5135769 1.8676478 3.5127087 1.3579086
000010 08 40 66 c0 41 bd b6 40 26 8e 79 be c4 3d 6b 3f
       -3.5976582 5.7106023 -0.24370632 0.9189112
000020 d6 42 b0 be f9 01 58 3e 9d 12 45 bf 8e 10 e0 bf
       -0.34425992 0.21094503 -0.76981527 -1.7505052
000030 46 a7 a9 3e 07 9f 6d c0 c0 fb ad be cd da d2 ba
       0.33135432 -3.7128313 -0.33981133 -0.0016086936
000040 9e 74 32 bf bc b2 5c 3e 24 80 97 3e e9 15 37 bf
       -0.69709194 0.21552557 0.2958995 -0.7151781
000050 6c 61 ef be e7 b6 a9 3e 24 37 8d 3e 2e 41 22 c0
       -0.46754014 0.33147356 0.2758113 -2.5352283
000060 a5 60 f6 be 57 ad 23 c1 d3 d0 24 bd 66 41 e1 3b
       -0.4812061 -10.229819 -0.040238213 0.006874251
000070 1d 77 00 3f 12 b6 16 40 7b e8 b3 c0 c3 76 ff bf
       0.5018175 2.3548627 -5.622129 -1.9958118
000080 37 94 94 c0 88 52 30 40 f0 70 7c be 72 f3 b3 be
       -4.6430926 2.7550373 -0.24652457 -0.35146672
000090 c4 0a 7a 3f 87 ee 6c 40 76 46 1b 41 0d 6b 35 be
       0.9767268 3.7020586 9.704702 -0.17716618
0000a0 dc da cb c0 46 20 ab 3f 2b bc e2 be dc 57 c3 bf
       -6.370466 1.3369224 -0.44284186 -1.5261188
0000b0 8f da a1 3f be d9 0b c0 b7 73 a4 c0 5e 5d fb bf
       1.2644824 -2.185165 -5.1391253 -1.9637868
0000c0 4a a2 07 be d6 5a 0f c1 95 f2 7d c0 f1 21 84 3f
       -0.13245502 -8.959677 -3.967931 1.0322858
0000d0 54 12 9e bd 5e fd 0f 40 5f 9c d9 c0 aa fa 15 c0
       -0.077183396 2.2498393 -6.8003383 -2.3434243
0000e0 55 b0 7d c0 5f c6 da 40 8e 20 5e 40 9b fc 42 bf
       -3.9638875 6.836715 3.470737 -0.76166695
0000f0 7d b7 e8 be 45 12 08 c1 c1 74 62 bf a8 64 bf 3f
       -0.4545249 -8.50446 -0.884594 1.4952593
000100 59 78 65 bf 21 58 ff 3f 82 86 ca c0 c9 36 55 c0
       -0.8963676 1.994877 -6.3289194 -3.3314688
000110 55 53 83 c0 c7 a4 62 40 93 e2 0e 40 bc 8a 93 bf
       -4.1039224 3.5413072 2.232579 -1.1526713
000120 5b 65 22 bf fc 36 0b c1 9c 2e eb bf 5c f3 04 bf
       -0.63435906 -8.700924 -1.8373599 -0.51933837
000130 5c 6c 9d 3f 5d ea 08 3f a6 de 89 c0 0e af 13 c0
       1.2298694 0.5348261 -4.308429 -2.3075595
000140 d4 4a 8b c0 3d 68 93 3f 6c ae 56 bf a4 44 86 3f
       -4.3528843 1.1516186 -0.83859897 1.0489697
000150 32 57 c3 bd 9c 7e 4c 40 c3 48 18 41 d5 4f af 3f
       -0.095381156 3.1952276 9.517764 1.3696238
000160 50 4e 52 c0 05 ab 10 bf 47 66 9a 40 3e df 15 3f
       -3.2860298 -0.56510955 4.824985 0.58543766
000170 d1 40 42 40 82 b5 ce 3f db 65 5c c0 ea 6e ee bf
       3.035206 1.6149142 -3.4437168 -1.8627598
000180 8e 0f 01 3f d5 06 0f 41 e6 ae 80 40 db f6 1a bf
       0.5041436 8.939168 4.02135 -0.6053292
000190 4f d8 db bf 30 26 58 3f c9 18 a2 40 11 90 32 bf
       -1.7175387 0.8443327 5.0655255 -0.6975108
0001a0 58 83 ae 3e 9b 48 45 c0 e3 b8 18 c0 9f 9b 8f bf
       0.34084582 -3.0825565 -2.3862846 -1.1219367
0001b0 cf 71 b7 bc d9 00 4d 3d 87 69 d9 3f ec 0d fc be
       -0.022393135 0.050049637 1.6985329 -0.49229372
0001c0 d7 a3 8f bf f1 63 22 40 5d 51 be bf c2 0b 7d bf
       -1.1221875 2.53735 -1.486858 -0.98846066
0001d0 64 dc 3d 3f 9d 20 4a 40 66 4e 65 bb e5 95 8b 3f
       0.74164414 3.1582406 -0.0034989356 1.0905119
0001e0 d4 66 b7 bd 4e 3d 50 c0 0b 1d 0e 40 16 29 16 c0
       -0.0895516 -3.2537417 2.2205226 -2.3462577
0001f0 00 1d 69 bf 57 16 b0 3e c2 32 24 bf fc 09 9b bf
       -0.91059875 0.34392044 -0.6413995 -1.2112422
000200 fa ea 72 c0 14 12 fe bf d0 08 81 c0 2d e8 b5 bf
       -3.7955918 -1.9849267 -4.0323257 -1.421148
000210 ae fd 84 be 06 18 14 c0 32 c0 7b c0 f0 7a cd bf
       -0.25974792 -2.3139663 -3.9336057 -1.6053143
000220 4e 66 9a 40 46 ab 99 bc af 06 84 40 5d b1 10 be
       4.8249884 -0.018758427 4.125816 -0.14130159
000230 80 01 39 be 3f 85 c0 be fc 18 41 c0 0e 4e 7a 40
       -0.18066978 -0.3760166 -3.01715 3.911014
000240 13 8d 94 be 8d 21 15 40 72 2a 90 bf d2 5f 09 c0
       -0.2901388 2.3301728 -1.1262953 -2.1464734
000250 e2 0c e8 3e 89 34 49 3f e0 f2 88 40 60 06 79 bd
       0.4532233 0.7859579 4.279648 -0.060797095
000260 38 e3 7d bf e4 01 bc 3e 16 11 cd bf e4 01 6a bd
       -0.99174833 0.36720192 -1.6020839 -0.05713071
000270 97 78 d6 be 3b 37 b1 bf b7 da a5 bf 8d bb 26 be
       -0.41888878 -1.384498 -1.2957371 -0.16282482
000280 38 c2 9d 3f 23 fc b9 3d d1 b8 5b 40 29 74 88 bf
       1.2324896 0.090812944 3.4331553 -1.0660449
000290 7d be f7 3d 3e 18 25 3f b4 f6 29 c0 c8 9a ea 3f
       0.1209688 0.64490116 -2.6556826 1.8328485
0002a0 f2 83 40 3e e1 ad 22 c1 40 04 82 bf 1b 29 b5 be
       0.18800333 -10.167451 -1.0157547 -0.35382923
0002b0 ce c4 90 be a2 f2 4a 3f 69 e8 7e c0 09 8d e3 bf
       -0.2827515 0.7927648 -3.9829352 -1.7777416
0002c0 84 f0 4b c0 4d 3d 3b 3f 7e 59 0c c0 c1 a6 e1 be
       -3.186555 0.7314041 -2.1929622 -0.44072536
0002d0 dd 8a c7 bf 1a d4 63 40 65 87 4a 3f 6a 81 7e bf
       -1.5589253 3.5598207 0.79112846 -0.9941622
0002e0 1d 9f 4f 3f c0 ce 19 3f 91 4f f8 40 da 6f 25 40
       0.8110216 0.600811 7.7597127 2.5849519
0002f0 78 ed 00 40 96 9a de 3f a2 99 33 c0 46 f0 10 40
       2.014494 1.7390926 -2.806252 2.2646651
000300 23 53 19 bf 79 58 f8 c0 e7 30 65 c0 dc 32 a2 3f
       -0.5989248 -7.7608 -3.5811098 1.2671771
000310 df 63 9f bd b5 b3 fa 3f ed 7f a9 c0 97 02 2a c0
       -0.07782721 1.9586092 -5.296866 -2.656408
000320 68 03 72 c0 a5 fb 87 40 19 74 4e 40 70 8e 80 bf
       -3.781458 4.2494683 3.225836 -1.0043468
000330 14 3b a2 c1 48 f7 67 40 c4 1a 2a c0 76 d6 bd 3d
       -20.278847 3.6244678 -2.6578836 0.09269421
000340 53 ae 35 40 56 8c 69 40 14 ff 83 40 36 ae d2 40
       2.838765 3.6491904 4.1248875 6.583766
000350 a7 a8 46 c0 b7 d6 d0 3f 9a af 2d 40 0c 55 44 40
       -3.1040437 1.6315526 2.7138429 3.0676908
000360 00 53 b4 bf 56 bd df c0 d9 6f 9f 40 9c 95 67 3f
       -1.408783 -6.9918623 4.9824033 0.9046266
000370 3c ae 05 c0 9f 6b 15 40 c6 45 36 bf 24 af e9 be
       -2.0887594 2.3346937 -0.71200216 -0.45641434
000380 e9 de 98 c0 f9 70 1f 40 f5 a5 fa 3f 20 3e 88 bf
       -4.7772107 2.4912703 1.9581896 -1.0643959
000390 f2 41 99 3d b1 25 32 41 24 01 19 40 cd c1 2b c0
       0.07483281 11.134202 2.3906946 -2.6837037
0003a0 dc 7e 85 bf 19 05 5b 3e 68 13 1a 41 e6 65 e3 3f
       -1.042934 0.21388663 9.629738 1.7765472
0003b0 c5 88 99 40 22 d9 03 c0 af 27 b1 c0 c4 6b bd 3f
       4.7979455 -2.0601277 -5.536094 1.4798512
0003c0 cc 87 cd bf ed c9 06 41 94 60 66 40 9d f9 be 3e
       -1.6057067 8.424298 3.5996447 0.37299815
0003d0 9f 51 97 be 45 82 90 3f ea 7f 2c 41 fa 64 9c 40
       -0.2955446 1.1289755 10.781229 4.8873262
0003e0 d4 b1 0b 40 74 19 f6 be 98 6c 14 c0 b7 0f d8 be
       2.1827288 -0.48066294 -2.319128 -0.4219949
0003f0 85 7a ca 40 4b d1 18 c1 1d ae 07 c2 8d 6a c3 c0
       6.327456 -9.551097 -33.920033 -6.1067567

fc.bias f4 [28]
000000 74 bd 6b c0 44 f1 90 40 85 bb 0d be e0 26 bc 3f
       -3.6834383 4.5294514 -0.13841064 1.4699364
000010 a1 1a 2b 3f 8c 79 be 3f 75 23 fc 3f f3 42 c7 bf
       0.6683751 1.4880843 1.9698321 -1.5567306
000020 ce 35 d7 3f 5b e8 55 c0 16 6e 02 40 0c f5 4d 3f
       1.6813295 -3.3423069 2.037969 0.80452037
000030 6e d9 6f be e8 6a 51 3f bb 9f 44 40 fb ad a5 bf
       -0.23422787 0.8180375 3.0722492 -1.294372
000040 0a 4f 02 40 23 e3 f7 c1 1e 56 18 c0 c0 fb 3b bf
       2.0360742 -30.985907 -2.3802562 -0.73431015
000050 a2 c8 80 bf 41 9b a8 c1 d5 c4 3c 40 f8 cf a0 40
       -1.0061228 -21.075808 2.9495137 5.025387
000060 0c 8f 82 3f 98 60 1f c0 74 21 a2 c0 b9 ea 4e c0
       1.0199904 -2.4902706 -5.0665836 -3.2330763
